…
2021-03-24 23:43:21.298205: E tensorflow/stream_executor/cuda/cuda_driver.cc:328] failed call to cuInit: CUDA_ERROR_NO_DEVICE: no CUDA-capable device is detected
2021-03-24 23:43:21.298284: I tensorflow/stream_executor/cuda/cuda_diagnostics.cc:156] kernel driver does not appear to be running on this host (ml-vm): /proc/driver/nvidia/version does not exist
2021-03-24 23:43:21.299161: I tensorflow/compiler/jit/xla_gpu_device.cc:99] Not creating XLA devices, tf_xla_enable_xla_devices not set
Model: "sequential"
_________________________________________________________________
Layer (type)                 Output Shape              Param #   
=================================================================
rescaling (Rescaling)        (None, 84, 84, 4)         0         
_________________________________________________________________
conv2d (Conv2D)              (None, 20, 20, 32)        8224      
_________________________________________________________________
conv2d_1 (Conv2D)            (None, 9, 9, 64)          32832     
_________________________________________________________________
conv2d_2 (Conv2D)            (None, 7, 7, 64)          36928     
_________________________________________________________________
flatten (Flatten)            (None, 3136)              0         
_________________________________________________________________
dense (Dense)                (None, 512)               1606144   
_________________________________________________________________
dense_1 (Dense)              (None, 3)                 1539      
=================================================================
Total params: 1,685,667
Trainable params: 1,685,667
Non-trainable params: 0
_________________________________________________________________
None
Model: "sequential_1"
_________________________________________________________________
Layer (type)                 Output Shape              Param #   
=================================================================
rescaling_1 (Rescaling)      (None, 84, 84, 4)         0         
_________________________________________________________________
conv2d_3 (Conv2D)            (None, 20, 20, 32)        8224      
_________________________________________________________________
conv2d_4 (Conv2D)            (None, 9, 9, 64)          32832     
_________________________________________________________________
conv2d_5 (Conv2D)            (None, 7, 7, 64)          36928     
_________________________________________________________________
flatten_1 (Flatten)          (None, 3136)              0         
_________________________________________________________________
dense_2 (Dense)              (None, 512)               1606144   
_________________________________________________________________
dense_3 (Dense)              (None, 3)                 1539      
=================================================================
Total params: 1,685,667
Trainable params: 1,685,667
Non-trainable params: 0
_________________________________________________________________
None
libpng warning: iCCP: known incorrect sRGB profile
now epsilon is 0.95, the reward is -446.1556324276157 with loss 0 in episode 0
Report: 
rewardSum:-446.1556324276157
height:-0.426280601395377
…
